…
[2020-12-28 11:09:27,357][Demo_KSC.py][INFO] Epoch:[1180/1200]	 test=4844\4891 OA=0.9903905 AA=0.9908711 kappa=0.9893010 AC=[[0.9930265  1.         0.99585062 1.         0.98666667 1.
 1.         0.98762376 1.         0.95212766 1.         0.96602972
 1.        ]]
[2020-12-28 11:09:39,360][Demo_KSC.py][INFO] Epoch:[1190/1200]	 test=4849\4891 OA=0.9914128 AA=0.9918941 kappa=0.9904393 AC=[[0.9930265  1.         0.99585062 1.         0.98666667 1.
 1.         0.98762376 1.         0.96542553 1.         0.96602972
 1.        ]]
[2020-12-28 11:09:49,128][Demo_KSC.py][INFO] model SSCDNonLModel_ablation(
  (b1): BatchNorm2d(176, eps=1e-05, momentum=0.1, affine=True, track_running_stats=True)
  (con1): Conv2d(176, 200, kernel_size=(1, 1), stride=(1, 1))
  (s1): Sigmoid()
  (cond1): Conv2d(200, 200, kernel_size=(5, 5), stride=(1, 1), padding=(2, 2), groups=200)
  (sd1): Sigmoid()
  (b2): BatchNorm2d(376, eps=1e-05, momentum=0.1, affine=True, track_running_stats=True)
  (con2): Conv2d(376, 200, kernel_size=(1, 1), stride=(1, 1))
  (s2): Sigmoid()
  (cond2): Conv2d(200, 25, kernel_size=(5, 5), stride=(1, 1), padding=(2, 2), groups=25)
  (sd2): Sigmoid()
  (b4): BatchNorm2d(25, eps=1e-05, momentum=0.1, affine=True, track_running_stats=True)
  (bcat): BatchNorm2d(50, eps=1e-05, momentum=0.1, affine=True, track_running_stats=True)
  (con4): Conv2d(50, 200, kernel_size=(1, 1), stride=(1, 1))
  (s4): Sigmoid()
  (cond4): Conv2d(200, 200, kernel_size=(5, 5), stride=(1, 1), padding=(2, 2), groups=200)
  (sd4): Sigmoid()
  (b5): BatchNorm2d(225, eps=1e-05, momentum=0.1, affine=True, track_running_stats=True)
  (con5): Conv2d(225, 200, kernel_size=(1, 1), stride=(1, 1))
  (s5): Sigmoid()
  (cond5): Conv2d(200, 200, kernel_size=(5, 5), stride=(1, 1), padding=(2, 2), groups=200)
  (sd5): Sigmoid()
  (con6): Conv2d(225, 14, kernel_size=(1, 1), stride=(1, 1))
)  best_acc 0.9991822 


[2020-12-28 11:09:49,248][Demo_KSC.py][INFO] NUM:[1/5]	 lr=0.0005,weight+decay=2e-05 


[2020-12-28 11:09:50,985][Demo_KSC.py][INFO] Epoch:[0/1200]	 test=871\4891 OA=0.1780822 AA=0.0769231 kappa=0.0000000 AC=[[0. 0. 0. 0. 0. 0. 0. 0. 0. 0. 0. 0. 1.]]
[2020-12-28 11:10:02,967][Demo_KSC.py][INFO] Epoch:[10/1200]	 test=871\4891 OA=0.1780822 AA=0.0769231 kappa=0.0000000 AC=[[0. 0. 0. 0. 0. 0. 0. 0. 0. 0. 0. 0. 1.]]
…
[2021-01-05 11:13:29,051][Demo_KSC.py][INFO] Epoch:[1180/1200]	 test=4837\4891 OA=0.9889593 AA=0.9890712 kappa=0.9877026 AC=[[1.         0.99126638 0.98755187 0.99156118 0.99333333 1.
 1.         1.         0.97764228 0.95478723 1.         0.96178344
 1.        ]]
[2021-01-05 11:13:35,763][Demo_KSC.py][INFO] Epoch:[1190/1200]	 test=4838\4891 OA=0.9891638 AA=0.9893039 kappa=0.9879301 AC=[[1.         1.         0.98340249 0.98734177 0.99333333 1.
 1.         1.         0.97764228 0.95744681 1.         0.96178344
 1.        ]]
[2021-01-05 11:13:41,207][Demo_KSC.py][INFO] model SSCDNonLModel_gcn5(
  (b1): BatchNorm2d(176, eps=1e-05, momentum=0.1, affine=True, track_running_stats=True)
  (con1): Conv2d(176, 200, kernel_size=(1, 1), stride=(1, 1))
  (s1): Sigmoid()
  (cond1): Conv2d(200, 200, kernel_size=(5, 5), stride=(1, 1), padding=(2, 2), groups=200)
  (sd1): Sigmoid()
  (b2): BatchNorm2d(376, eps=1e-05, momentum=0.1, affine=True, track_running_stats=True)
  (con2): Conv2d(376, 200, kernel_size=(1, 1), stride=(1, 1))
  (s2): Sigmoid()
  (cond2): Conv2d(200, 25, kernel_size=(5, 5), stride=(1, 1), padding=(2, 2), groups=25)
  (sd2): Sigmoid()
  (b4): BatchNorm2d(25, eps=1e-05, momentum=0.1, affine=True, track_running_stats=True)
  (trans): Conv2d(25, 1, kernel_size=(1, 1), stride=(1, 1))
  (att): ContextBlock2d(
    (conv_mask): Conv2d(25, 1, kernel_size=(1, 1), stride=(1, 1))
    (softmax): Softmax(dim=2)
  )
  (conv1): GCNConv(1, 12)
  (conv2): GCNConv(12, 25)
  (bcat): BatchNorm2d(50, eps=1e-05, momentum=0.1, affine=True, track_running_stats=True)
  (con4): Conv2d(50, 200, kernel_size=(1, 1), stride=(1, 1))
  (s4): Sigmoid()
  (cond4): Conv2d(200, 200, kernel_size=(5, 5), stride=(1, 1), padding=(2, 2), groups=200)
  (sd4): Sigmoid()
  (b5): BatchNorm2d(225, eps=1e-05, momentum=0.1, affine=True, track_running_stats=True)
  (con5): Conv2d(225, 200, kernel_size=(1, 1), stride=(1, 1))
  (s5): Sigmoid()
  (cond5): Conv2d(200, 200, kernel_size=(5, 5), stride=(1, 1), padding=(2, 2), groups=200)
  (sd5): Sigmoid()
  (con6): Conv2d(225, 14, kernel_size=(1, 1), stride=(1, 1))
)  best_acc 0.9959109 


[2021-01-05 11:13:41,672][Demo_KSC.py][INFO] NUM:[1/5]	 lr=0.0005,weight+decay=2e-05 


[2021-01-05 11:13:43,385][Demo_KSC.py][INFO] Epoch:[0/1200]	 test=871\4891 OA=0.1780822 AA=0.0769231 kappa=0.0000000 AC=[[0. 0. 0. 0. 0. 0. 0. 0. 0. 0. 0. 0. 1.]]
[2021-01-05 11:13:50,085][Demo_KSC.py][INFO] Epoch:[10/1200]	 test=871\4891 OA=0.1780822 AA=0.0769231 kappa=0.0000000 AC=[[0. 0. 0. 0. 0. 0. 0. 0. 0. 0. 0. 0. 1.]]
…
[2021-01-08 23:10:56,025][Demo_KSC.py][INFO] Epoch:[1180/1200]	 test=4859\4891 OA=0.9934574 AA=0.9933283 kappa=0.9927136 AC=[[1.         1.         0.99170124 0.98734177 0.99333333 1.
 1.         0.98762376 1.         0.9893617  1.         0.96390658
 1.        ]]
[2021-01-08 23:12:30,935][Demo_KSC.py][INFO] Epoch:[1190/1200]	 test=4860\4891 OA=0.9936618 AA=0.9935329 kappa=0.9929413 AC=[[1.         1.         0.99170124 0.98734177 0.99333333 1.
 1.         0.98762376 1.         0.99202128 1.         0.96390658
 1.        ]]
[2021-01-08 23:13:54,735][Demo_KSC.py][INFO] model SSCDNonLModel(
  (b1): BatchNorm2d(176, eps=1e-05, momentum=0.1, affine=True, track_running_stats=True)
  (con1): Conv2d(176, 200, kernel_size=(1, 1), stride=(1, 1))
  (s1): Sigmoid()
  (cond1): Conv2d(200, 200, kernel_size=(5, 5), stride=(1, 1), padding=(2, 2), groups=200)
  (sd1): Sigmoid()
  (b2): BatchNorm2d(376, eps=1e-05, momentum=0.1, affine=True, track_running_stats=True)
  (con2): Conv2d(376, 200, kernel_size=(1, 1), stride=(1, 1))
  (s2): Sigmoid()
  (cond2): Conv2d(200, 25, kernel_size=(5, 5), stride=(1, 1), padding=(2, 2), groups=25)
  (sd2): Sigmoid()
  (b4): BatchNorm2d(25, eps=1e-05, momentum=0.1, affine=True, track_running_stats=True)
  (nlcon2): CrissCrossAttention(
    (query_conv): Conv2d(25, 25, kernel_size=(1, 1), stride=(1, 1))
    (key_conv): Conv2d(25, 25, kernel_size=(1, 1), stride=(1, 1))
    (value_conv): Conv2d(25, 25, kernel_size=(1, 1), stride=(1, 1))
  )
  (nlcon3): CrissCrossAttention(
    (query_conv): Conv2d(25, 25, kernel_size=(1, 1), stride=(1, 1))
    (key_conv): Conv2d(25, 25, kernel_size=(1, 1), stride=(1, 1))
    (value_conv): Conv2d(25, 25, kernel_size=(1, 1), stride=(1, 1))
  )
  (bcat): BatchNorm2d(50, eps=1e-05, momentum=0.1, affine=True, track_running_stats=True)
  (con4): Conv2d(50, 200, kernel_size=(1, 1), stride=(1, 1))
  (s4): Sigmoid()
  (cond4): Conv2d(200, 200, kernel_size=(5, 5), stride=(1, 1), padding=(2, 2), groups=200)
  (sd4): Sigmoid()
  (b5): BatchNorm2d(225, eps=1e-05, momentum=0.1, affine=True, track_running_stats=True)
  (con5): Conv2d(225, 200, kernel_size=(1, 1), stride=(1, 1))
  (s5): Sigmoid()
  (cond5): Conv2d(200, 200, kernel_size=(5, 5), stride=(1, 1), padding=(2, 2), groups=200)
  (sd5): Sigmoid()
  (con6): Conv2d(225, 14, kernel_size=(1, 1), stride=(1, 1))
)  best_acc 0.9965242 


[2021-01-08 23:13:55,769][Demo_KSC.py][INFO] NUM:[1/5]	 lr=0.0005,weight+decay=2e-05 


[2021-01-08 23:14:06,590][Demo_KSC.py][INFO] Epoch:[0/1200]	 test=391\4891 OA=0.0799428 AA=0.0769231 kappa=0.0000000 AC=[[0. 0. 0. 0. 0. 0. 0. 0. 0. 0. 1. 0. 0.]]
[2021-01-08 23:15:42,129][Demo_KSC.py][INFO] Epoch:[10/1200]	 test=871\4891 OA=0.1780822 AA=0.0769231 kappa=0.0000000 AC=[[0. 0. 0. 0. 0. 0. 0. 0. 0. 0. 0. 0. 1.]]
…
[2021-02-02 18:21:49,774][Demo_KSC.py][INFO] Epoch:[1180/1200]	 test=4843\4891 OA=0.9901861 AA=0.9900844 kappa=0.9890707 AC=[[0.9986053  1.         0.99585062 0.97468354 0.99333333 1.
 1.         0.99752475 0.99186992 0.95744681 1.         0.96178344
 1.        ]]
[2021-02-02 18:22:02,356][Demo_KSC.py][INFO] Epoch:[1190/1200]	 test=4841\4891 OA=0.9897771 AA=0.9897918 kappa=0.9886157 AC=[[0.9986053  1.         0.99585062 0.96624473 1.         1.
 1.         0.99752475 0.9898374  0.95744681 1.         0.96178344
 1.        ]]
[2021-02-02 18:22:12,032][Demo_KSC.py][INFO] model SSCDNonLModel_gcn_a1(
  (b1): BatchNorm2d(176, eps=1e-05, momentum=0.1, affine=True, track_running_stats=True)
  (con1): Conv2d(176, 200, kernel_size=(1, 1), stride=(1, 1))
  (s1): Sigmoid()
  (cond1): Conv2d(200, 200, kernel_size=(5, 5), stride=(1, 1), padding=(2, 2), groups=200)
  (sd1): Sigmoid()
  (b2): BatchNorm2d(376, eps=1e-05, momentum=0.1, affine=True, track_running_stats=True)
  (con2): Conv2d(376, 200, kernel_size=(1, 1), stride=(1, 1))
  (s2): Sigmoid()
  (cond2): Conv2d(200, 25, kernel_size=(5, 5), stride=(1, 1), padding=(2, 2), groups=25)
  (sd2): Sigmoid()
  (b4): BatchNorm2d(25, eps=1e-05, momentum=0.1, affine=True, track_running_stats=True)
  (trans): Conv2d(25, 1, kernel_size=(1, 1), stride=(1, 1))
  (att): ContextBlock2d(
    (conv_mask): Conv2d(25, 1, kernel_size=(1, 1), stride=(1, 1))
    (softmax): Softmax(dim=2)
  )
  (conv1): GCNConv(1, 12)
  (conv2): GCNConv(12, 25)
  (bcat): BatchNorm2d(25, eps=1e-05, momentum=0.1, affine=True, track_running_stats=True)
  (con4): Conv2d(25, 200, kernel_size=(1, 1), stride=(1, 1))
  (s4): Sigmoid()
  (cond4): Conv2d(200, 200, kernel_size=(5, 5), stride=(1, 1), padding=(2, 2), groups=200)
  (sd4): Sigmoid()
  (b5): BatchNorm2d(225, eps=1e-05, momentum=0.1, affine=True, track_running_stats=True)
  (con5): Conv2d(225, 200, kernel_size=(1, 1), stride=(1, 1))
  (s5): Sigmoid()
  (cond5): Conv2d(200, 200, kernel_size=(5, 5), stride=(1, 1), padding=(2, 2), groups=200)
  (sd5): Sigmoid()
  (con6): Conv2d(225, 14, kernel_size=(1, 1), stride=(1, 1))
)  best_acc 0.9961153 


[2021-02-02 18:22:12,170][Demo_KSC.py][INFO] NUM:[1/10]	 lr=0.0005,weight+decay=2e-05 


[2021-02-02 18:22:14,464][Demo_KSC.py][INFO] Epoch:[0/1200]	 test=871\4891 OA=0.1780822 AA=0.0769231 kappa=0.0000000 AC=[[0. 0. 0. 0. 0. 0. 0. 0. 0. 0. 0. 0. 1.]]
[2021-02-02 18:22:26,918][Demo_KSC.py][INFO] Epoch:[10/1200]	 test=871\4891 OA=0.1780822 AA=0.0769231 kappa=0.0000000 AC=[[0. 0. 0. 0. 0. 0. 0. 0. 0. 0. 0. 0. 1.]]
…
