…
[2021-01-07 17:09:29,606][Demo_Bo.py][INFO] Epoch:[980/1000]	 test=2861\3176 OA=0.9008186 AA=0.9056976 kappa=0.8925393 AC=[[0.99621212 1.         0.92116183 1.         0.73863636 0.89473684
 1.         0.71859296 0.86319218 0.61316872 1.         1.
 1.         0.93406593]]
[2021-01-07 17:09:37,367][Demo_Bo.py][INFO] Epoch:[990/1000]	 test=2863\3176 OA=0.9014484 AA=0.9058260 kappa=0.8932200 AC=[[0.99621212 1.         0.9253112  1.         0.75378788 0.89473684
 1.         0.71859296 0.85667752 0.61316872 1.         1.
 1.         0.92307692]]
[2021-01-07 17:09:43,497][Demo_Bo.py][INFO] model SSCDNonLModel_gcn5(
  (b1): BatchNorm2d(145, eps=1e-05, momentum=0.1, affine=True, track_running_stats=True)
  (con1): Conv2d(145, 200, kernel_size=(1, 1), stride=(1, 1))
  (s1): Sigmoid()
  (cond1): Conv2d(200, 200, kernel_size=(5, 5), stride=(1, 1), padding=(2, 2), groups=200)
  (sd1): Sigmoid()
  (b2): BatchNorm2d(345, eps=1e-05, momentum=0.1, affine=True, track_running_stats=True)
  (con2): Conv2d(345, 200, kernel_size=(1, 1), stride=(1, 1))
  (s2): Sigmoid()
  (cond2): Conv2d(200, 25, kernel_size=(5, 5), stride=(1, 1), padding=(2, 2), groups=25)
  (sd2): Sigmoid()
  (b4): BatchNorm2d(25, eps=1e-05, momentum=0.1, affine=True, track_running_stats=True)
  (trans): Conv2d(25, 1, kernel_size=(1, 1), stride=(1, 1))
  (att): ContextBlock2d(
    (conv_mask): Conv2d(25, 1, kernel_size=(1, 1), stride=(1, 1))
    (softmax): Softmax(dim=2)
  )
  (conv1): GCNConv(1, 12)
  (conv2): GCNConv(12, 25)
  (bcat): BatchNorm2d(50, eps=1e-05, momentum=0.1, affine=True, track_running_stats=True)
  (con4): Conv2d(50, 200, kernel_size=(1, 1), stride=(1, 1))
  (s4): Sigmoid()
  (cond4): Conv2d(200, 200, kernel_size=(5, 5), stride=(1, 1), padding=(2, 2), groups=200)
  (sd4): Sigmoid()
  (b5): BatchNorm2d(225, eps=1e-05, momentum=0.1, affine=True, track_running_stats=True)
  (con5): Conv2d(225, 200, kernel_size=(1, 1), stride=(1, 1))
  (s5): Sigmoid()
  (cond5): Conv2d(200, 200, kernel_size=(5, 5), stride=(1, 1), padding=(2, 2), groups=200)
  (sd5): Sigmoid()
  (con6): Conv2d(225, 15, kernel_size=(1, 1), stride=(1, 1))
)  best_acc 0.9020781 


[2021-01-07 17:09:43,630][Demo_Bo.py][INFO] NUM:[1/2]	 lr=0.0006,weight+decay=2e-05 


[2021-01-07 17:09:45,234][Demo_Bo.py][INFO] Epoch:[0/1000]	 test=142\3176 OA=0.0447103 AA=0.1086006 kappa=0.0160459 AC=[[0.         0.52040816 0.         0.         0.         0.
 0.         0.         0.         0.         0.         0.
 0.         1.        ]]
…
[2021-01-07 20:05:45,346][Demo_Bo.py][INFO] Epoch:[980/1000]	 test=2857\3176 OA=0.8995592 AA=0.8883712 kappa=0.8911464 AC=[[1.         0.98979592 0.90456432 0.9952381  0.76515152 0.88721805
 1.         0.8241206  0.88599349 0.69958848 0.96258503 0.97765363
 0.98484848 0.56043956]]
[2021-01-07 20:07:23,514][Demo_Bo.py][INFO] Epoch:[990/1000]	 test=2874\3176 OA=0.9049118 AA=0.8982629 kappa=0.8969553 AC=[[1.         1.         0.91286307 0.9952381  0.76136364 0.88345865
 1.         0.81909548 0.89576547 0.69547325 0.97959184 0.97765363
 0.98484848 0.67032967]]
[2021-01-07 20:08:47,457][Demo_Bo.py][INFO] model SSCDNonLModel(
  (b1): BatchNorm2d(145, eps=1e-05, momentum=0.1, affine=True, track_running_stats=True)
  (con1): Conv2d(145, 200, kernel_size=(1, 1), stride=(1, 1))
  (s1): Sigmoid()
  (cond1): Conv2d(200, 200, kernel_size=(5, 5), stride=(1, 1), padding=(2, 2), groups=200)
  (sd1): Sigmoid()
  (b2): BatchNorm2d(345, eps=1e-05, momentum=0.1, affine=True, track_running_stats=True)
  (con2): Conv2d(345, 200, kernel_size=(1, 1), stride=(1, 1))
  (s2): Sigmoid()
  (cond2): Conv2d(200, 25, kernel_size=(5, 5), stride=(1, 1), padding=(2, 2), groups=25)
  (sd2): Sigmoid()
  (b4): BatchNorm2d(25, eps=1e-05, momentum=0.1, affine=True, track_running_stats=True)
  (nlcon2): CrissCrossAttention(
    (query_conv): Conv2d(25, 25, kernel_size=(1, 1), stride=(1, 1))
    (key_conv): Conv2d(25, 25, kernel_size=(1, 1), stride=(1, 1))
    (value_conv): Conv2d(25, 25, kernel_size=(1, 1), stride=(1, 1))
  )
  (nlcon3): CrissCrossAttention(
    (query_conv): Conv2d(25, 25, kernel_size=(1, 1), stride=(1, 1))
    (key_conv): Conv2d(25, 25, kernel_size=(1, 1), stride=(1, 1))
    (value_conv): Conv2d(25, 25, kernel_size=(1, 1), stride=(1, 1))
  )
  (bcat): BatchNorm2d(50, eps=1e-05, momentum=0.1, affine=True, track_running_stats=True)
  (con4): Conv2d(50, 200, kernel_size=(1, 1), stride=(1, 1))
  (s4): Sigmoid()
  (cond4): Conv2d(200, 200, kernel_size=(5, 5), stride=(1, 1), padding=(2, 2), groups=200)
  (sd4): Sigmoid()
  (b5): BatchNorm2d(225, eps=1e-05, momentum=0.1, affine=True, track_running_stats=True)
  (con5): Conv2d(225, 200, kernel_size=(1, 1), stride=(1, 1))
  (s5): Sigmoid()
  (cond5): Conv2d(200, 200, kernel_size=(5, 5), stride=(1, 1), padding=(2, 2), groups=200)
  (sd5): Sigmoid()
  (con6): Conv2d(225, 15, kernel_size=(1, 1), stride=(1, 1))
)  best_acc 0.9052267 


[2021-01-07 20:08:49,910][Demo_Bo.py][INFO] NUM:[1/2]	 lr=0.0006,weight+decay=2e-05 


[2021-01-07 20:26:48,608][Demo_Bo.py][INFO] NUM:[0/2]	 lr=0.0006,weight+decay=2e-05 


[2021-01-07 20:26:53,203][Demo_Bo.py][INFO] Epoch:[0/1000]	 test=478\3176 OA=0.1505038 AA=0.1142392 kappa=0.0625077 AC=[[0.         0.         0.         0.         0.         0.
…
[2021-01-07 20:39:00,920][Demo_Bo.py][INFO] Epoch:[980/1000]	 test=2805\3176 OA=0.8831864 AA=0.8819935 kappa=0.8734246 AC=[[0.97727273 0.89795918 0.85062241 1.         0.64772727 0.85338346
 1.         0.71859296 0.99022801 0.61316872 0.98639456 0.97206704
 0.93939394 0.9010989 ]]
[2021-01-07 20:39:08,267][Demo_Bo.py][INFO] Epoch:[990/1000]	 test=2790\3176 OA=0.8784635 AA=0.8780315 kappa=0.8683456 AC=[[0.98863636 0.93877551 0.80912863 1.         0.65530303 0.84962406
 1.         0.71859296 0.97394137 0.66666667 0.92857143 0.97765363
 0.93939394 0.84615385]]
[2021-01-07 20:39:14,076][Demo_Bo.py][INFO] model SSCDNonLModel_ablation(
  (b1): BatchNorm2d(145, eps=1e-05, momentum=0.1, affine=True, track_running_stats=True)
  (con1): Conv2d(145, 200, kernel_size=(1, 1), stride=(1, 1))
  (s1): Sigmoid()
  (cond1): Conv2d(200, 200, kernel_size=(5, 5), stride=(1, 1), padding=(2, 2), groups=200)
  (sd1): Sigmoid()
  (b2): BatchNorm2d(345, eps=1e-05, momentum=0.1, affine=True, track_running_stats=True)
  (con2): Conv2d(345, 200, kernel_size=(1, 1), stride=(1, 1))
  (s2): Sigmoid()
  (cond2): Conv2d(200, 25, kernel_size=(5, 5), stride=(1, 1), padding=(2, 2), groups=25)
  (sd2): Sigmoid()
  (b4): BatchNorm2d(25, eps=1e-05, momentum=0.1, affine=True, track_running_stats=True)
  (bcat): BatchNorm2d(50, eps=1e-05, momentum=0.1, affine=True, track_running_stats=True)
  (con4): Conv2d(50, 200, kernel_size=(1, 1), stride=(1, 1))
  (s4): Sigmoid()
  (cond4): Conv2d(200, 200, kernel_size=(5, 5), stride=(1, 1), padding=(2, 2), groups=200)
  (sd4): Sigmoid()
  (b5): BatchNorm2d(225, eps=1e-05, momentum=0.1, affine=True, track_running_stats=True)
  (con5): Conv2d(225, 200, kernel_size=(1, 1), stride=(1, 1))
  (s5): Sigmoid()
  (cond5): Conv2d(200, 200, kernel_size=(5, 5), stride=(1, 1), padding=(2, 2), groups=200)
  (sd5): Sigmoid()
  (con6): Conv2d(225, 15, kernel_size=(1, 1), stride=(1, 1))
)  best_acc 0.8885390 


[2021-01-07 20:39:14,235][Demo_Bo.py][INFO] NUM:[1/2]	 lr=0.0006,weight+decay=2e-05 


[2021-01-07 20:39:15,685][Demo_Bo.py][INFO] Epoch:[0/1000]	 test=307\3176 OA=0.0966625 AA=0.0714286 kappa=0.0002247 AC=[[0. 0. 0. 0. 0. 0. 0. 0. 1. 0. 0. 0. 0. 0.]]
[2021-01-07 20:39:23,031][Demo_Bo.py][INFO] Epoch:[10/1000]	 test=1048\3176 OA=0.3299748 AA=0.2801385 kappa=0.2697153 AC=[[0.54166667 0.         0.593361   0.13333333 0.71590909 0.87969925
…
